mnist_net/model/mnist_net.pkl (torch, 90703 bytes, 4 tensors)

fc1.weight f4 [28, 784]
0.018673602 -0.034385495 -0.028709928 0.018301036 -0.011988401 -0.008237895 0.0057692192 -0.015632361
0.03287581 -0.016214699 -0.0010699518 -0.025651455 -0.006030244 -0.0039685834 -0.0069836695 -0.03462347
0.018020902 -0.011817349 0.019594315 0.017319314 0.028376456 0.02552661 0.010226395 -0.026455322
-0.003413938 -0.00019115955 0.013785973 0.02177212 0.033219572 0.01924834 0.0014791489 -0.0031815693
0.01952064 -0.020841537 -0.04963188 -0.10668283 -0.026317282 -0.022124957 -0.0735259 -0.064607635
-0.044852883 -0.020730311 -0.017944895 -0.06206863 0.012479793 0.02713753 0.0052403333 0.027713157
0.022129644 -0.02994859 -0.022189144 -0.034037217 0.020472936 -0.013636824 -0.0074235667 -0.020345574
0.033418152 -0.008972671 -0.02569756 0.0058292113 0.02420839 -0.020672243 -0.0020509537 -0.0106214965
-0.025791686 0.02786446 0.038922414 0.05411116 0.061667774 0.031642623 0.05499026 0.04491408
0.08422021 0.0726318 0.06749114 0.070225954 0.06938966 0.09264358 0.048014898 0.056699425
-0.010829668 -0.0011130372 0.008241288 0.021851473 0.022092808 0.0036540516 -0.025307445 0.008139833
0.052655894 0.081924014 0.06345374 0.016914407 0.03979382 0.084037706 0.052648444 0.047504842
0.0699675 0.040454615 0.036029268 0.06895944 0.07183332 0.09085429 0.09985624 0.10695096
0.08283297 0.08359087 0.112599395 0.09267265 0.090498105 0.0482567 0.016622324 0.0047124997
0.03352547 -0.014214188 -0.042214073 -0.031692646 0.0155203035 0.035792846 0.052662577 0.061848365
0.096663535 0.05298579 0.058806375 0.07819854 0.066423625 0.011773451 0.038623765 0.033583015
0.05792143 0.081347145 0.08242989 0.08486301 0.10412095 0.07175135 0.06429397 0.098259926
0.1025105 0.027308736 0.04906718 0.023999091 0.033475008 -0.008053048 -0.024748025 -0.018675879
0.08189954 0.08671673 0.10414126 0.13288331 0.06854242 0.09746649 0.06736275 0.068032645
0.059684962 0.04572645 0.050283972 0.05611391 0.11728458 0.120080516 0.11775814 0.072645314
0.1039624 0.034004517 0.084786534 0.10955123 0.09439313 0.08194422 0.049976613 0.0006755217
-0.033029437 0.0018361615 -0.030789027 -0.018459134 0.08773344 0.04562296 0.09714018 0.107740484
0.06989852 0.07089172 0.013116897 0.047918007 0.0060254014 -0.046997976 -0.023266971 -0.012692114
-0.05619611 -0.07667 -0.042426918 -0.018695531 0.04347936 0.026006758 0.06334981 0.16814232
0.11435655 0.16780114 0.06900763 0.0017612856 0.023076572 -0.040451314 -0.008588292 -0.046972267
0.10522733 0.09055255 0.06579788 0.080761045 0.06525782 0.07550876 0.008825806 0.011939403
0.003255283 -0.059923783 -0.14606203 -0.12367163 -0.12706763 -0.110635765 -0.104903795 -0.09018588
-0.0005360376 0.027117608 0.09193901 0.11820295 0.09165059 0.07790073 0.04065453 0.008818389
-0.037256204 -0.02239614 0.008188269 -0.024145324 0.10587959 0.08818808 0.0633335 0.07393005
0.053060826 0.049073435 0.05040321 0.019855278 -0.0122653255 -0.04430286 -0.1696861 -0.18169612
-0.18653834 -0.15982601 -0.100453354 -0.04984117 0.009974931 0.042593192 0.062153857 0.01919277
0.020439815 0.01182234 0.059391465 0.046330858 -0.049805507 -0.06734831 -0.013640361 -0.037436526
00000000: 62f9 983c ced7 0cbd 1531 ebbc 0eec 953c
00000010: 006b 44bc 3cf8 06bc b80b bd3b 700f 80bc
00000020: c9a8 063d b0d4 84bc a03d 8cba 0023 d2bc
00000030: 5a99 c5bb e40a 82bb 44d7 e4bb 57d1 0dbd
00000040: 92a0 933c 8e9d 41bc 4284 a03c 3ce1 8d3c
00000050: be75 e83c 2e1d d13c 9c8c 273c d5b8 d8bc
00000060: 60bc 5fbb 0072 48b9 90de 613c 725b b23c
00000070: 3f11 083d b2ae 9d3c 00e0 c13a e081 50bb
00000080: c0e9 9f3c dfbb aabc cc4a 4bbd 877c dabd
00000090: 5797 d7bc 663f b5bc bf94 96bd 0251 84bd
000000a0: a8b7 37bd 9dd2 a9bc 2c01 93bc ad3b 7ebd
000000b0: 0c78 4c3c 864f de3c 1ab7 ab3b b406 e33c
000000c0: 3a49 b53c bf56 f5bc 02c6 b5bc 9c6a 0bbd
000000d0: dcb6 a73c fc6c 5fbc 6441 f3bb c3ab a6bc
000000e0: 79e1 083d 1c02 13bc b083 d2bc f802 bf3b
000000f0: ac50 c63c d658 a9bc 4b69 06bb c905 2ebc
00000100: 1649 d3bc 0244 e43c 1c6d 1f3d aaa3 5d3d
00000110: 5997 7c3d b29b 013d 783d 613d d4f7 373d
00000120: a57b ac3d fbbf 943d cb38 8a3d a0d2 8f3d
00000130: 2b1c 8e3d ebbb bd3d 45ab 443d a83d 683d
00000140: eb6e 31bc 55e3 91ba 7806 073c dc01 b33c
00000150: fafb b43c d078 6f3b 8f51 cfbc ef5c 053c
00000160: b5ad 573d c7c7 a73d 09f4 813d 1590 8a3c
00000170: d8fe 223d f61b ac3d e5a5 573d 7094 423d
00000180: 1f4b 8f3d bdb3 253d 6d93 133d 9b3a 8d3d
00000190: 591d 933d d011 ba3d 6e81 cc3d 1b09 db3d
000001a0: 55a4 a93d b131 ab3d 839a e63d 29cb bd3d
000001b0: 1257 b93d d1a8 453d 8a2b 883c 506b 9a3b
000001c0: 0152 093d a0e2 68bc aae8 2cbd 26d0 01bd
000001d0: df48 7e3c 859b 123d b7b4 573d b654 7d3d
000001e0: 88f7 c53d a107 593d f4de 703d 8e26 a03d
000001f0: 1c09 883d 6fe5 403c f433 1e3d 588e 093d
00000200: 053f 6d3d 5599 a63d 01d1 a83d a8cc ad3d
00000210: 5d3d d53d 5ff2 923d 8fac 833d 803c c93d
00000220: 06f1 d13d 92b6 df3c abfa 483d be99 c43c
00000230: 171d 093d eef0 03bc 5fbc cabc 28fe 98bc
00000240: f2ba a73d 8a98 b13d 0348 d53d 9012 083e
00000250: f85f 8c3d 839c c73d 7bf5 893d b354 8b3d
00000260: 3878 743d a84b 3b3d 91f6 4d3d b3d7 653d
00000270: e632 f03d c6ec f53d 2e2b f13d 11c7 943d
00000280: 3dea d43d 5248 0b3d 90a4 ad3d 655c e03d
00000290: 2f51 c13d 5fd2 a73d 47b4 4c3d 7e15 313a
000002a0: e049 07bd 5bab f03a 4539 fcbc 9c37 97bc
000002b0: 97ad b33d 24df 3a3d 6ef1 c63d 0ba7 dc3d
000002c0: f526 8f3d ae2f 913d 41e8 563c ac45 443d
000002d0: bb70 c53b f380 40bd 609a bebc 96f2 4fbc
000002e0: e42d 66bd 2905 9dbd d9c7 2dbd 5f27 99bc
000002f0: 6a17 323d 200c d53c 8cbd 813d 802d 2c3e
00000300: c433 ea3d 10d4 2b3e df53 8d3d f0da e63a
00000310: 140b bd3c 47b0 25bd e8b5 0cbc fe65 40bd
00000320: 6d81 d73d 9e73 b93d 0ac1 863d 0c66 a53d
00000330: e4a5 853d 56a4 9a3d 1d9a 103c 7c9d 433c
00000340: 9656 553b a472 75bd 4991 15be 8d47 fdbd
00000350: 041e 02be 0195 e2bd cdd7 d6bd 60b3 b8bd
00000360: e084 0cba bf25 de3c 854a bc3d 6314 f23d
00000370: 4eb3 bb3d 6b8a 9f3d 5d85 263d 017b 103c
00000380: f699 18bd 1c78 b7bc 1728 063c 6acc c5bc
00000390: 66d7 d83d f49b b43d feb4 813d a368 973d
000003a0: 4f56 593d 3a01 493d 9973 4e3d 89a7 a23c
000003b0: 81f4 48bc ea76 35bd 31c2 2dbe 8c0e 3abe
000003c0: e803 3fbe 6ea9 23be 7dba cdbd 4126 4cbd
000003d0: e56d 233c 3376 2e3d 0b95 7e3d 283a 9d3c
000003e0: 6671 a73c 7db2 413c 7744 733d 6dc5 3d3d
000003f0: dc00 4cbd e9ed 89bd d27b 5fbc 0b57 19bd

fc1.bias f4 [28]
0.041037768 0.1443307 -0.073873475 -0.00029340072 -0.14197777 0.16245204 0.05540085 0.10062461
-0.051048215 0.15317896 0.060342845 -0.011835613 0.05844743 0.10227415 0.06306541 0.044169284
0.061401416 -0.009896559 -0.04728914 -0.0017664996 0.07049812 0.032323252 0.11333705 -0.02368361
0.02071459 -0.13181156 0.21603857 0.08175963
00000000: 3817 283d 6dcb 133e fa4a 97bd 94d3 99b9
00000010: 9f62 11be d459 263e 00ec 623d 4714 ce3d
00000020: ef17 51bd f2da 1c3e 0f2a 773d 29ea 41bc
00000030: 9366 6f3d 1c75 d13d 7028 813d daea 343d
00000040: 0d80 7b3d 2d25 22bc 42b2 41bd e489 e7ba
00000050: 5161 903d 6365 043d 411d e83d 2104 c2bc
00000060: a5b1 a93c 9cf9 06be 3739 5d3e 9871 a73d

fc2.weight f4 [10, 28]
-0.29632524 -0.23379703 0.18644895 -0.18192649 0.24860919 0.17925595 -0.11407585 -0.13172895
-0.1339543 0.048427362 -0.28580815 -0.38021222 0.30150497 -0.037910003 0.29852718 -0.20908527
-0.14744309 0.073178455 -0.34177226 -0.23866841 -0.23615561 -0.004649715 -0.2720247 0.008273844
0.22615485 0.26865494 0.0071602594 0.17970003 0.056249004 0.31242955 -0.29783136 -0.18789597
-0.26440164 0.14655264 -0.37503514 0.19415566 -0.21770112 0.20627417 -0.32698855 -0.18849392
0.0058745104 -0.30482557 -0.3706535 0.280768 -0.29444382 0.09059343 0.22163838 0.20469998
-0.06867731 0.32627895 -0.3591656 0.19786431 -0.25438124 -0.32057148 0.23301362 -0.2972518
0.24779981 -0.4271862 0.1871589 -0.106781214 -0.08087464 -0.23420657 -0.23343283 0.10686604
-0.30218142 -0.10669408 -0.23599805 -0.14341414 0.33422598 0.1728442 -0.08799088 -0.23958229
-0.054203015 -0.06323113 0.29725716 0.14590368 0.0988501 -0.4056983 -0.17288591 0.25042522
0.01970096 0.18597345 0.35233882 -0.11118621 0.016117746 -0.09425288 0.070413336 0.18259946
-0.13764395 -0.0888833 -0.22984421 0.07732035 0.32673973 -0.2930749 0.15811713 -0.25415075
-0.18640827 -0.1283027 0.28959107 0.053703737 -0.30179942 0.01633292 -0.03169737 0.093413524
0.32780662 -0.15825586 0.15437062 0.272446 -0.14906737 -0.2848551 -0.10270418 -0.34213838
0.34808525 0.10042619 0.09309153 -0.0132150045 -0.10164609 -0.03307841 0.053843327 -0.38081965
-0.16136923 -0.024013747 -0.07027851 0.28786296 -0.4021041 0.321666 0.12818812 -0.23028684
-0.052588604 0.026936028 -0.31162617 0.07640232 -0.412805 0.35638198 0.15292256 -0.43081653
-0.45780465 -0.10911711 -0.16124591 0.07357565 0.05363089 0.1730051 0.1103391 -0.14551952
-0.3422943 0.33750948 0.118950054 0.2635183 -0.1157262 -0.23348394 0.04919951 -0.026641846
-0.27878383 -0.2813262 0.1926529 0.023278954 0.25698328 0.13349478 -0.3052249 -0.17444475
0.13354108 -0.5269754 -0.2840571 -0.34508798 0.30467188 -0.29454783 0.22969544 -0.15024981
0.1909832 -0.12939468 0.18520862 -0.10602937 0.018433731 0.27337697 0.303419 -0.29596964
-0.42254308 0.047556944 0.26005667 0.078665435 -0.15772465 0.2771436 -0.025542041 0.25255448
-0.41065738 0.09522761 0.16441047 -0.32636237 -0.36002925 -0.022287205 -0.36199772 -0.36844212
-0.155983 0.18566898 0.2371758 -0.35606682 -0.075130194 0.30157456 -0.24655166 -0.029440677
0.15989985 -0.32917154 0.07617193 -0.051512856 0.223337 0.23422985 -0.16967843 -0.10761207
0.0008745324 0.2519367 -0.17855708 -0.39038938 -0.0511659 0.035981715 -0.018206084 -0.37662104
0.24699736 -0.15955861 0.40371838 0.049196225 -0.06662321 -0.25390217 0.406553 0.2532073
0.20727791 0.14908932 0.16875221 0.06456571 0.25266513 -0.13259697 0.10309311 0.13421582
0.20422797 -0.41319484 -0.38021937 0.15590136 -0.23584914 -0.22656265 -0.1664865 0.13605334
0.062826335 -0.11515106 0.15213661 0.028674617 -0.14332774 -0.12793218 -0.42254797 -0.02780224
0.16443276 0.032968286 -0.4806632 -0.064528435 0.021067394 0.13145241 -0.22074388 -0.011466168
00000000: f1b7 97be 7d68 6fbe 79ec 3e3e f04a 3abe
00000010: 6893 7e3e df8e 373e 99a0 e9bd f4e3 06be
00000020: 512b 09be c55b 463d 7255 92be 2dab c2be
00000030: dc5e 9a3e 8547 1bbd 8ed8 983e 731a 56be
00000040: 52fb 16be 96de 953d c6fc aebe 7e65 74be
00000050: c7d2 71be a35c 98bb d246 8bbe 048f 073c
00000060: 2395 673e 248d 893e 9ca0 ea3b 4903 383e
00000070: 5b65 663d c4f6 9f3e 5a7d 98be cd67 40be
00000080: a75f 87be e511 163e 9b04 c0be bed0 463e
00000090: 0bed 5ebe 8939 533e 0b6b a7be 8d04 41be
000000a0: f77e c03b 1912 9cbe 4cc6 bdbe d3c0 8f3e
000000b0: 57c1 96be 0c89 b93d 2cf5 623e df9c 513e
000000c0: b1a6 8cbd 090e a73e 8ee4 b7be f19c 4a3e
000000d0: 423e 82be f221 a4be 1f9b 6e3e 6331 98be
000000e0: 3cbf 7d3e 26b8 dabe 95a6 3f3e 1cb0 dabd
000000f0: 9aa1 a5bd d9d3 6fbe 0409 6fbe 95dc da3d
00000100: 86b7 9abe 6d82 dabd 79a9 71be 28db 12be
00000110: ab1f ab3e 12fe 303e 9034 b4bd 0f55 75be
00000120: fb03 5ebd 537f 81bd 1732 983e c667 153e
00000130: ec71 ca3d b0b7 cfbe 0109 31be bc37 803e
00000140: e863 a13c d36f 3e3e c165 b43e 98b5 e3bd
00000150: 5d09 843c a707 c1bd de34 903d 5afb 3a3e
00000160: 89f2 0cbe 7308 b6bd 485c 6bbe 225a 9e3d
00000170: 6e4a a73e ea0d 96be 75e9 213e 0c20 82be
00000180: cfe1 3ebe c861 03be 4845 943e 73f8 5b3d
00000190: 7485 9abe 9ecc 853c 1ad5 01bd 974f bf3d
000001a0: 45d6 a73e d30d 22be 5513 1e3e 0b7e 8b3e
000001b0: 1ea5 18be 87d8 91be 9256 d2bd c32c afbe
000001c0: 3b38 b23e 3fac cd3d c6a6 be3d bf83 58bc
000001d0: d32b d0bd 3a7d 07bd d28a 5c3d cbfa c2be
000001e0: fa3d 25be 7ab8 c4bc 2eee 8fbd c662 933e
000001f0: 97e0 cdbe 68b1 a43e bf43 033e 50d0 6bbe
00000200: 2667 57bd f2a8 dc3c 778d 9fbe d278 9c3d
00000210: 2d5b d3be b377 b63e bb97 1c3e fc93 dcbe
00000220: 5f65 eabe cb78 dfbd a61d 25be d5ae 963d
00000230: 10ac 5b3d 4028 313e 77f9 e13d 1203 15be
00000240: 3341 afbe 0bce ac3e 169c f33d dfeb 863e
00000250: dc01 edbd 6a16 6fbe 6d85 493d 0040 dabc
00000260: c1bc 8ebe fd09 90be cd46 453e 81b3 be3c
00000270: 5093 833e dbb2 083e 7046 9cbe a5a1 32be
00000280: febe 083e dce7 06bf ef6f 91be 5faf b0be
00000290: f4fd 9b3e f9ce 96be 4835 6b3e 16db 19be
000002a0: 1a91 433e 0a80 04be 54a7 3d3e ed25 d9bd
000002b0: 5602 973c 11f8 8b3e bc59 9b3e 5589 97be
000002c0: 9157 d8be 12cb 423d 2626 853e 581b a13d
000002d0: 9282 21be c4e5 8d3e 8b3d d1bc d24e 813e
000002e0: af41 d2be b106 c33d 385b 283e f818 a7be
000002f0: c155 b8be a893 b6bc c457 b9be 72a4 bcbe
00000300: 02ba 1fbe 0220 3e3e 37de 723e 644e b6be
00000310: dcdd 99bd fb67 9a3e 0a78 7cbe 932d f1bc
00000320: c9bc 233e 2c89 a8be 0700 9c3d 25ff 52bd
00000330: 74b2 643e f3d9 6f3e 2fc0 2dbe b863 dcbd
00000340: e040 653a d9fd 803e abd7 36be 1ee1 c7be
00000350: 5693 51bd 9061 133d ed24 95bc 79d4 c0be
00000360: e0ec 7c3e 5563 23be 2db4 ce3e fb81 493d
00000370: c071 88bd 77ff 81be b727 d03e 63a4 813e
00000380: a940 543e dfaa 183e 61cd 2c3e 073b 843d
00000390: 535d 813e 80c7 07be 7b22 d33d df6f 093e
000003a0: 2321 513e 468e d3be 1dac c2be 9ba4 1f3e
000003b0: 7082 71be 0a00 68be 707b 2abe 9151 0b3e
000003c0: 18ab 803d 52d4 ebbd b3c9 1b3e 08e7 ea3c
000003d0: 82c4 12be a700 03be 3558 d8be 86c1 e3bc
000003e0: 1061 283e c109 073d 7d19 f6be 7c27 84bd
000003f0: 8795 ac3c 769b 063e af0a 62be 98dc 3bbc

fc2.bias f4 [10]
-0.048708327 0.2349997 -0.17712641 -0.008530192 0.033650097 0.1035229 -0.12455956 -0.15717717
-0.31546134 0.06178311
00000000: 6282 47bd c3a3 703e a060 35be 38c2 0bbc
00000010: afd4 093d d003 d43d 1519 ffbd 0df3 20be
00000020: 2684 a1be 4910 7d3d
