mnist_net/model/mnist_net.pt (torch, 90703 bytes, 4 tensors)

fc1.weight f4 [28, 784]
-0.009179097 -0.024968006 0.022347882 -0.04194926 0.024842009 -0.0048842803 0.021591552 -0.03432667
-0.035420265 0.015875995 0.013574067 -0.009939084 -0.01129752 0.008233054 0.017200332 0.021089826
-0.041306276 -0.04055867 -0.02582639 -0.035708897 -0.024877347 0.021448404 -0.03258343 0.0241649
-0.010060316 0.025533296 -0.035181273 0.00528913 0.008811235 0.021687005 -0.009563673 -0.0003993078
-0.0016196996 -0.016235396 0.019989127 -0.041594632 0.014483649 -0.025087798 -0.024988588 0.010184211
-0.024881978 0.024599345 0.0011723777 -0.01513253 0.028326454 0.01496945 -0.022028424 0.009059876
0.004077035 0.004572479 0.011788432 -0.016172994 0.011659246 0.008182462 -0.011384955 -0.013700014
-0.010503834 -0.034511928 -0.044080142 0.011348993 -0.032901514 -0.0058886036 -0.0368915 0.010815836
-0.01162683 -0.041111086 0.011752377 0.027929734 -0.0062981825 -0.017421283 0.005526368 0.0035889284
0.028722705 0.02103152 0.012508581 -0.0099815205 0.007971313 -0.014690116 0.016878253 0.023246767
-0.013601018 -0.010518135 0.009964727 -0.04337238 0.01403768 0.012064036 -0.034873094 -0.016775733
-0.027622543 -0.016997129 -0.044314906 -0.03280343 -0.018850183 -0.008386002 0.02866282 0.020017292
-0.037420847 -0.01724164 -0.022338696 -0.03327743 -0.036914006 0.0004331547 -0.048926737 -0.047961
-0.05576493 -0.020065261 -0.0016785966 -0.03646636 -0.016985325 -0.04670832 0.022928134 0.02017966
-0.027265158 0.0175462 -0.018025255 0.009749313 -0.049894933 -0.0018069969 -0.006499292 -0.003090428
0.01822519 0.0063410494 0.020047095 0.033048782 0.0442155 0.10584023 0.10761918 0.1032883
0.1180455 0.049469844 0.036454547 0.003024718 0.045022428 -0.004650838 -0.05440062 -0.03293539
-0.029405996 -0.0071235946 -0.0360415 0.024766691 -0.028606124 0.005938736 -0.021738745 -0.044855274
-0.02012554 -0.038178734 -0.0025207982 0.0067795636 -0.0290293 0.033947714 0.030106261 0.027945824
0.008184539 0.026365407 0.019526633 0.05427751 0.05274659 0.0014477074 0.03782322 0.059095956
0.044105705 0.028950043 -0.01689512 -0.0018699019 -0.026127324 -0.01695746 -0.015893623 0.014382658
-0.035916626 0.011215221 -0.00858774 0.006326923 -0.055212222 -0.047295403 0.00015910232 0.015977446
0.03199258 0.02373348 -0.0062152734 -0.023253562 0.02186912 0.057146315 0.0074866763 -0.025885252
-0.024877626 -0.036808513 -0.02395097 -0.010032366 0.030888433 0.07239561 0.010118737 0.036313348
0.021357208 0.0029772273 0.0062421486 0.00354363 -0.039871126 -0.024979424 0.005109232 0.0069987946
-0.012623861 -0.015437543 -0.01185123 0.013266887 0.018600538 0.021067252 0.041628208 0.050624534
0.0087559195 -0.012105981 -0.037477914 -0.03746482 -0.012410814 -0.06887852 0.008474072 -0.035902258
0.0011050979 0.04415193 0.053200845 0.0643096 0.06831755 0.0071213455 0.022472395 0.024088511
-0.026602661 0.017330162 0.024262516 0.0035666372 -0.033525877 -0.015108467 0.051446054 0.069990516
0.053119134 0.012793949 0.02654703 0.057096105 0.056387078 0.080311805 -0.025467837 -0.011543452
-0.031841032 0.004041834 -0.0053097014 0.011423746 0.02282278 0.012906618 0.04187783 0.11809991
0.072267026 -0.0073706326 -0.015491656 -0.00068581663 0.023728447 0.01169714 -0.003900614 -0.037493978
00000000: ec63 16bc b489 ccbc e812 b73c fdd2 2bbd
00000010: 7881 cb3c 500c a0bb c4e0 b03c 1f9a 0cbd
00000020: d714 11bd 600e 823c c365 5e3c 8ad7 22bc
00000030: 3c19 39bc eee3 063c b6e7 8c3c 92c4 ac3c
00000040: c530 29bd d920 26bd de91 d3bc 7e43 12bd
00000050: 94cb cbbc 90b4 af3c 3476 05bd 78f5 c53c
00000060: 06d4 24bc 342b d13c 3d1a 10bd 7050 ad3b
00000070: 005d 103c f2a8 b13c f4b0 1cbc 305a d1b9
00000080: 1a4c d4ba 1800 85bc 3dc0 a33c 225f 2abd
00000090: d44c 6d3c ed84 cdbc deb4 ccbc addb 263c
000000a0: 4ad5 cbbc 9184 c93c 78aa 993a 6eee 77bc
000000b0: e10c e83c 6d42 753c f474 b4bc e06f 143c
000000c0: a698 853b bcd4 953b 4424 413c 3a7d 84bc
000000d0: 6c06 3f3c bc0f 063c f687 3abc 0676 60bc
000000e0: 4618 2cbc 615c 0dbd 618d 34bd 20f1 393c
000000f0: bdc3 06bd 30f5 c0bb 8b1b 17bd e734 313c
00000100: 767e 3ebc 1964 28bd 0b8d 403c e6cc e43c
00000110: fc60 cebb 14b7 8ebc 8916 b53b 3a34 6b3b
00000120: e14b eb3c 4b4a ac3c cbf0 4c3c 8889 23bc
00000130: 1c9a 023c d0ae 70bc 4344 8a3c 0170 be3c
00000140: ced6 5ebc 4154 2cbc 1843 233c 3da7 31bd
00000150: 4cfe 653c 3ca8 453c 17d7 0ebd 436d 89bc
00000160: ac48 e2bc 903d 8bbc 8c83 35bd e45c 06bd
00000170: b36b 9abc 7165 09bc 4ace ea3c 4efb a33c
00000180: 9a46 19bd 573e 8dbc a4ff b6bc ea4d 08bd
00000190: 2433 17bd 0a19 e339 6767 48bd c172 44bd
000001a0: c469 64bd e75f a4bc 5b04 dcba c05d 15bd
000001b0: cf24 8bbc 3951 3fbd c8d3 bb3c d04f a53c
000001c0: 2e5b dfbc 0cbd 8f3c b3a9 93bc 95bb 1f3c
000001d0: a15e 4cbd c1d8 ecba 03f8 d4bb c788 4abb
000001e0: fe4c 953c 94c8 cf3b ce39 a43c 295e 073d
000001f0: 501b 353d c3c2 d83d 7267 dc3d d188 d33d
00000200: d7c1 f13d e4a0 4a3d 5d51 153d 593a 463b
00000210: 7069 383d 0f66 98bb 2fd3 5ebd 42e7 06bd
00000220: d8e4 f0bc 0b6d e9bb 40a0 13bd 84e3 ca3c
00000230: 6457 eabc ba99 c23b 7415 b2bc 2aba 37bd
00000240: 51de a4bc 4e61 1cbd fa33 25bb 1a27 de3b
00000250: dbce edbc c20c 0b3d 68a1 f63c a4ee e43c
00000260: 7218 063c 44fc d73c 51f6 9f3c 1852 5e3d
00000270: cf0c 583d 00c1 bd3a 85ec 1a3d 9a0e 723d
00000280: 2fa8 343d a428 ed3c a267 8abc 7f17 f5ba
00000290: f808 d6bc 5fea 8abc 5833 82bc 3da5 6b3c
000002a0: 501d 13bd 0cc0 373c 98b3 0cbc 1452 cf3b
000002b0: 3626 62bd d3b8 41bd b4d4 2639 22e3 823c
000002c0: a70a 033d b76c c23c 7ea9 cbbb 417e bebc
000002d0: de26 b33c 4112 6a3d cb52 f53b 4f0d d4bc
000002e0: 2acc cbbc 86c4 16bd d334 c4bc cb5e 24bc
000002f0: bd09 fd3c 2644 943d 0fc9 253c 4ebd 143d
00000300: 50f5 ae3c 961d 433b f08a cc3b 3f3c 683b
00000310: e84f 23bd a6a1 ccbc 586b a73b 2556 e53b
00000320: 50d4 4ebc c0ed 7cbc a92b 42bc 5b5d 593c
00000330: 2860 983c 3b95 ac3c 5782 2a3d ac5b 4f3d
00000340: fd74 0f3c 2a58 46bc 7182 19bd b674 19bd
00000350: ba56 4bbc 2e10 8dbd d6d6 0a3c 3f0e 13bd
00000360: efd8 903a a7d8 343d 21e9 593d c0b4 833d
00000370: 12ea 8b3d 2d5a e93b 0718 b83c 4555 c53c
00000380: d3ed d9bc fcf7 8d3c 2fc2 c63c 3ebe 693b
00000390: 6e52 09bd 8189 77bc 19b9 523d 3057 8f3d
000003a0: 7393 593d b69d 513c 2879 d93c 9bdd 693d
000003b0: 23f6 663d 847a a43d eda1 d0bc bf20 3dbc
000003c0: be6b 02bd 5c71 843b 01fd adbb aa2a 3b3c
000003d0: d7f6 ba3c 4876 533c 1688 2b3d 5ede f13d
000003e0: bc00 943d 5985 f1bb b7d0 7dbc 60c8 33ba
000003f0: 2962 c23c 5ca5 3f3c 72a1 7fbb 4993 19bd

fc1.bias f4 [28]
0.039994758 -0.036993954 0.037709687 -0.0031318527 0.017653653 -0.03844387 0.0046168934 0.030834919
-0.021846 -0.008401155 0.055794142 0.045744844 -0.026626669 0.015668973 0.032906905 0.039925706
-0.017933378 0.0238587 0.0009979224 0.044301823 0.005381156 0.04106933 0.03046224 0.032985292
-0.005275645 0.043180365 0.014620379 -0.034850724
00000000: 8bd1 233d f986 17bd 7975 1a3d c53f 4dbb
00000010: 659e 903c 5277 1dbd 4f49 973b 8399 fc3c
00000020: 62f6 b2bc ffa4 09bc 6688 643d f25e 3b3d
00000030: 2c20 dabc 385c 803c 64c9 063d 2389 233d
00000040: 05e9 92bc 5273 c33c b8cc 823a d475 353d
00000050: 6954 b03b 5038 283d f38b f93c 961b 073d
00000060: 51df acbb e5dd 303d 508a 6f3c a2bf 0ebd

fc2.weight f4 [10, 28]
-0.091071084 -0.16818686 -0.009070582 0.0020453797 0.22003783 0.1455331 -0.24660152 0.17760049
0.1374667 0.052624375 -0.23498039 0.053829253 0.026347214 0.25291312 -0.116348535 0.15816075
0.13539997 -0.2968816 0.15854964 -0.07043638 -0.09435932 -0.09628903 0.047386523 -0.0421349
0.22435907 -0.11498586 -0.08384573 -0.1671236 0.06437794 0.04504939 -0.22880638 -0.24554728
-0.23421319 0.072693504 0.23015599 -0.0055865436 0.1117184 -0.10781225 -0.2784184 -0.14068443
0.0636754 -0.26513076 -0.09691504 -0.12422885 0.1702436 0.18454187 -0.19949877 -0.33265233
-0.03166657 0.191218 -0.058491077 -0.13225782 0.19628192 0.2423684 0.18946089 0.091603756
0.11002503 0.17036502 0.08445996 -0.23633058 0.08037513 0.008359686 0.1574048 0.19320676
-0.06432094 -0.2346382 0.109049745 -0.09690305 0.24747242 0.20958243 -0.18117929 -0.054504722
0.16855869 0.11095766 -0.0025264113 -0.067428805 -0.27168214 -0.12505904 0.19899149 0.033535987
0.03295813 -0.15665056 0.094196044 -0.110721126 -0.09400855 -0.093288966 -0.015398688 -0.16722307
-0.07346319 -0.27427286 0.007460061 0.2190287 -0.07583519 0.10377209 -0.1785278 0.23083018
-0.061325457 0.03576142 0.058476157 -0.030868828 0.139144 0.118834 -0.16528122 0.24042258
0.12876983 0.16057242 -0.05755426 0.04207909 -0.23416401 -0.12163917 0.19532977 -0.02356452
-0.18873055 0.10222723 -0.18642046 0.09583769 -0.09497456 0.19038258 0.05308747 -0.37171036
-0.027264046 0.22927023 0.16400729 -0.14129177 -0.3392208 -0.17070088 0.07215329 -0.11261861
-0.02239531 0.1233177 -0.0172009 -0.24257636 0.072691984 -0.15896653 0.2689927 -0.057751015
-0.35072422 0.06233476 -0.13476774 -0.017477656 0.0028884637 -0.0016155537 -0.1820758 0.05948523
0.19247515 0.024328666 -0.2124308 0.2057397 -0.024863616 0.048392527 0.12904932 0.10389399
-0.2808316 -0.29619035 -0.018980753 0.06430565 -0.260205 0.0746309 -0.23069362 0.061291344
0.1328387 0.12230588 -0.16701631 -0.031172005 0.22874357 -0.02841815 -0.08186018 -0.0017868205
-0.009728843 -0.005133082 0.12952277 0.07014703 0.21600208 -0.009640356 -0.30814227 -0.22860013
0.18271084 -0.22866422 -0.051979207 -0.14597628 0.033886477 -0.03211904 0.23614393 -0.33827293
-0.1931483 0.0039028467 -0.28539506 -0.18191099 -0.17865966 -0.18255177 0.109462254 0.1697776
0.14406541 0.17321941 0.04424732 0.04164775 -0.083157174 -0.18293555 0.19931282 -0.1831167
-0.21426688 -0.0860216 0.025591703 -0.24379969 0.058907922 0.09678672 -0.11399991 0.14876726
0.06752963 -0.1590899 -0.25116152 0.1045337 0.24470758 0.016375236 0.25039133 -0.082657285
0.2251056 -0.23570387 -0.049803928 0.15882745 0.07785131 0.098778866 0.059080593 -0.105392024
0.20546274 0.066511646 -0.16107848 0.13678835 -0.034605633 0.15167002 0.07431431 -0.21779272
0.090162635 -0.19505827 0.088049755 0.06169812 0.059290994 0.07427391 0.18546249 0.15083706
0.054609507 -0.18755034 -0.021539457 0.025327161 -0.116548985 0.16716434 -0.07969942 -0.024756731
-0.006210502 0.07682731 -0.15216653 -0.13465069 -0.39141867 0.042038023 -0.079995364 0.16811351
00000000: 7a83 babd 2d39 2cbe c79c 14bc c70b 063b
00000010: 9951 613e a106 153e 1c85 7cbe e7dc 353e
00000020: 12c4 0c3e a88c 573d b39e 70be 107c 5c3d
00000030: 1dd6 d73c d47d 813e 2448 eebd e4f4 213e
00000040: 4aa6 0a3e dd00 98be d65a 223e f340 90bd
00000050: 763f c1bd 2f33 c5bd 5f18 423d a595 2cbd
00000060: 62be 653e b57d ebbd 4fb7 abbd 7322 2bbe
00000070: 95d8 833d b685 383d 384c 6abe bf70 7bbe
00000080: 95d5 6fbe 55e0 943d 03ae 6b3e 530f b7bb
00000090: 9ecc e43d abcc dcbd db8c 8ebe 940f 10be
000000a0: 4068 823d 38bf 87be 647b c6bd b26b febd
000000b0: 5754 2e3e 8bf8 3c3e 6849 4cbe 6851 aabe
000000c0: ceb4 01bd a7ce 433e 5794 6fbd 986e 07be
000000d0: 21fe 483e 6c2f 783e 0902 423e c09a bb3d
000000e0: ce54 e13d 2b74 2e3e 58f9 ac3d a500 72be
000000f0: b79b a43d 10f7 083c b92e 213e fed7 453e
00000100: b2ba 83bd ff44 70be 7955 df3d 1b75 c6bd
00000110: 6969 7d3e c79c 563e 1087 39be 5840 5fbd
00000120: a69a 2c3e c53d e33d 2692 25bb 1d18 8abd
00000130: ec19 8bbe 7a0f 00be 6dc4 4b3e 085d 093d
00000140: 1bff 063d 0169 20be dbe9 c03d c2c1 e2bd
00000150: 8e87 c0bd 490e bfbd c74a 7cbc 863c 2bbe
00000160: de73 96bd 7e6d 8cbe 8773 f43b 0f49 603e
00000170: 7b4f 9bbd 7686 d43d fecf 36be bf5e 6c3e
00000180: 6730 7bbd 917a 123d b284 6f3d a0e0 fcbc
00000190: c47b 0e3e 3d5f f33d 7b3f 29be 5631 763e
000001a0: 3ddc 033e 196d 243e 04be 6bbd 205b 2c3d
000001b0: b1c8 6fbe f51d f9bd 8704 483e 610a c1bc
000001c0: 9542 41be 835c d13d 01e5 3ebe 8d46 c43d
000001d0: 0682 c2bd a7f3 423e 3f72 593d d250 bebe
000001e0: d958 dfbc d1c5 6a3e 87f1 273e caae 10be
000001f0: 59ae adbe 36cc 2ebe 1bc5 933d 96a4 e6bd
00000200: 5f76 b7bc fe8d fc3d e7e8 8cbc f065 78be
00000210: 89df 943d 1fc8 22be 69b9 893e 548c 6cbd
00000220: 2092 b3be bc52 7f3d 8e00 0abe 4d2d 8fbc
00000230: 614c 3d3b fdc0 d3ba 1472 3abe c9a6 733d
00000240: 3518 453e e94c c73c 7687 59be 6ead 523e
00000250: c8ae cbbc 3e37 463d 8125 043e 5fc6 d43d
00000260: 29c9 8fbe 43a6 97be 867d 9bbc aeb2 833d
00000270: 9739 85be 16d8 983d f33a 6cbe a20c 7b3d
00000280: de06 083e 817b fa3d 5306 2bbe 6f5c ffbc
00000290: c13b 6a3e 2ecd e8bc 4fa6 a7bd bf33 eaba
000002a0: ba65 1fbc 6a33 a8bb 9ea1 043e 3fa9 8f3d
000002b0: a62f 5d3e 95f2 1dbc d3c4 9dbe 2716 6abe
000002c0: 8d18 3b3e f426 6abe 26e8 54bd ce7a 15be
000002d0: 8ccc 0a3d 418f 03bd b7cf 713e 1c32 adbe
000002e0: abc8 45be e7c6 7f3b 4d1f 92be e046 3abe
000002f0: 8ff2 36be daee 3abe bf2d e03d 2eda 2d3e
00000300: e285 133e 6e60 313e ae3c 353d d596 2a3d
00000310: 4f4e aabd 7553 3bbe a918 4c3e f282 3bbe
00000320: c768 5bbe 182c b0bd b1a5 d13c a0a6 79be
00000330: 6f49 713d 1e38 c63d c978 e9bd 7256 183e
00000340: fa4c 8a3d 76e8 22be 3e98 80be c415 d63d
00000350: a094 7a3e 5c25 863c 4b33 803e 3948 a9bd
00000360: 1582 663e 5b5c 71be 34ff 4bbd aaa3 223e
00000370: 8270 9f3d 934c ca3d 7efe 713d c6d7 d7bd
00000380: d364 523e 4237 883d c2f1 24be 3f12 0c3e
00000390: a3be 0dbd 634f 1b3e 1a32 983d 0e05 5fbe
000003a0: 30a7 b83d 5bbd 47be 6e53 b43d 2bb7 7c3d
000003b0: 1ddb 723d eb1c 983d e1e9 3d3e 0875 1a3e
000003c0: 38ae 5f3d 320d 40be 8473 b0bc e87a cf3c
000003d0: 3cb1 eebd 212d 2b3e 7339 a3bd a1ce cabc
000003e0: 7781 cbbb a357 9d3d 8bd1 1bbe dfe1 09be
000003f0: 0768 c8be 1030 2c3d 9cd4 a3bd f325 2c3e

fc2.bias f4 [10]
-0.20098992 -0.14036718 -0.18668894 -0.10480191 -0.17129388 -0.0254327 -0.12917289 -0.062912844
-0.16901727 -0.1118604
00000000: 4dd0 4dbe 6abc 0fbe 632b 3fbe 62a2 d6bd
00000010: aa67 2fbe 3d58 d0bc e645 04be 73d8 80bd
00000020: dd12 2dbe 1117 e5bd
