mnist_net/model/mnist_net.pt (torch, 90703 bytes, 4 tensors)

fc1.weight f4 [28, 784]
00000000: 336b cfbc b935 be3c f427 fcba 55f9 f33c
00000010: 2238 15bc b67d 233d 47d5 f73c 5e52 1d3d
00000020: bff5 c7bc 9cda 383c cfd5 ef3c 7ce5 0f3c
00000030: 23d7 8dbb 2f3f 6ebc 047b 08bc 539d e13c
00000040: 1176 8fbc 79b8 2f3b b6c6 5fb9 101d 0dbc
00000050: 252e ae3c b869 333d c733 acbc 1429 143d
00000060: a5cb ab3b 9e04 103d 2eb4 223d 49eb 7dbb
00000070: 534c 5b3b fa63 48bb 8034 28bc 1427 023d
00000080: 4381 8ebc 003c 5d3c da62 033d 3a53 243d
00000090: 3809 73bc 915c 5338 9ebc 7f3c 51a4 adbc
000000a0: 3d3a b63c 3ed3 58bc ab65 9dbc 09d1 cdbc
000000b0: 6774 883c 0668 993a 59ae 993c 1914 f3ba
000000c0: 1867 233c da2c 223d b838 293c 1afa 78bc
000000d0: 6188 ae3c 12d4 283d 9c82 6d3c 1cb6 0cbc
000000e0: 91de a4bb 4d13 fc3c fc63 2fbc 78bb 0cbc
000000f0: ad9f 053d 9a5c 47bc 02fb 0a3d 8465 82bb
00000100: 84a9 783c f08d 233d 413d 9bbc bcd3 013d
00000110: f10f a5bc a419 08bc 7107 a43c 7083 173c
00000120: 4169 dabc 0e45 39b9 15cf 77bb e09f 793c
00000130: 5812 04bb fe7b 343d d28e 77bc 2f12 903c
00000140: 504b 663c 5611 6bbc b7d3 bd3c d13b 9abc
00000150: ef0b cabc 452d 62bb edee cf3b 9a07 70bc
00000160: dcb1 353d 71f2 de3c 548f 333d f352 89bc
00000170: 28d4 cc3c b282 223d e63d cabc 24a0 09bc
00000180: 02ac 1abc 4599 a43c 5913 c23c 623f 3d3c
00000190: a609 9bbb 855f 28bd 587a 883c b897 723b
000001a0: 464c 1eb9 e7ad fdbb 1d16 9a3c 9b55 a1bc
000001b0: 148a 4dbc 7059 5c3c 32bf 273d 6caa 353c
000001c0: f527 abbb a29a 59bc aca1 2b3d 7221 48bc
000001d0: 61c1 c53c 7846 a1bc 06a5 90bb b8c4 033d
000001e0: dada 9dbc 42f3 29bc 4d58 ac3c c6fc 8bbc
000001f0: 6fd4 07bd 6212 df3c dda8 403c 0d5e eebc
00000200: 1d15 22bd 7aab 4abc 762b 4dbc 3e20 743c
00000210: 57af 84bb 3510 e83c 5c6b 2d3c 5cd8 173d
00000220: 5b0c 973c e8cd 0fbc cb35 c33c 5867 27bc
00000230: 3b69 a73c 1dc5 d13c 47fe 7d3b 54a0 0ebc
00000240: bf94 0bbb 2acb ecbb b153 873c 471b 0e3c
00000250: 958b d53c 3cea f9bc 1389 083c a47f b0bc
00000260: b0f6 2b3c 72e4 bd3c 36d7 a5bc 2b31 983c
00000270: 154b 35bb 8d79 53bc 5f9c b4bc 7e5b ff3c
00000280: 302d fd3c 90b5 e5bc 62c7 1b3d 784d 793c
00000290: 199b 903c 6ba6 debb 5bbe 71bc 0a57 333d
000002a0: 6bd9 a1bb c0e9 4d3c dc6a 2e3d f081 383d
000002b0: d3ab 5b3b 68cd d7bb ef96 1abc 993d 0a3d
000002c0: f01f de3c f1c9 2d3d 502e 0a3d 28a1 acbc
000002d0: ae81 c73c 1d01 85bb 75e3 a7bc a125 3e3c
000002e0: a74a b4bc a057 39bc d399 91bc 05da cebc
000002f0: ed51 44bc 1652 c2bb a412 a03c b31a f83c
00000300: f07c 93bb e66e f63b 0023 383d 4f40 71bc
00000310: 3fae 86bc 55e8 e23c 6bf0 d4bb 19f6 c4bc
00000320: 19b6 50bc 0c10 143d fa4a 32bc 2591 fa3c
00000330: ce48 a93c 2238 63ba 995d dbbc 16b1 e23c
00000340: 4700 adbc ea2c 7d3c fb94 c33b 7765 78bc
00000350: b015 b8bc 40a6 aebc dcf0 753c 5493 f53b
00000360: 7ed5 ffbb f596 3e3c f7a9 e93c c3c5 a23c
00000370: 2f82 a9bc f48d e23b 22a1 bfbc 6dd8 b83b
00000380: b775 093c adc5 f03b 9203 0d3d 9db8 a6bc
00000390: cc0b 74bc 1fa3 30bc 4136 e03c b377 8ebc
000003a0: 7242 bfbc b2d7 d7bc 3ab2 033d a12c 773c
000003b0: 20d0 2d3c b226 29bd bf3c 96bc f675 0c3d
000003c0: f432 593b 9832 08bd 8446 c03c 5e2e ffbc
000003d0: 644c 5439 a143 1bbc f83e ccbb c96d 1fbd
000003e0: e912 dd3c d0a3 043d f083 903c f06f 613c
000003f0: 33c3 8dbc 09b0 2c3b 22f5 ebb9 16ee 1d3d
-0.025319671 0.023218976 -0.0019237981 0.029781977 -0.009107621 0.03991481 0.030253066 0.03840863
-0.024409173 0.011282589 0.029276757 0.008782741 -0.004328625 -0.014541431 -0.00833011 0.027540838
-0.017512353 0.0026812835 -0.00021340963 -0.008612886 0.021262238 0.043801993 -0.021020783 0.036171988
0.005242782 0.035160653 0.039722614 -0.0038744977 0.003346224 -0.0030577169 -0.010266423 0.03177555
-0.017395621 0.013503075 0.032076694 0.040118434 -0.014833741 5.039253e-05 0.015608935 -0.021196516
0.022244567 -0.013233958 -0.019213518 -0.02512409 0.016657067 0.0011703975 0.018759893 -0.0018545418
0.00997331 0.039593555 0.010328464 -0.015196348 0.021305265 0.04121787 0.014496472 -0.00858834
-0.005031415 0.030770922 -0.0107049905 -0.008589618 0.03262298 -0.012168074 0.033930786 -0.0039793868
0.015177134 0.039930284 -0.018950107 0.031696066 -0.020149203 -0.008306894 0.02002308 0.009247646
-0.026661517 -0.000176687 -0.003781264 0.015235871 -0.0020152535 0.04406356 -0.015109735 0.017586796
0.014056042 -0.014347395 0.023172243 -0.01882735 -0.024663894 -0.0034511846 0.006345621 -0.01465025
0.044359073 0.027215214 0.04383786 -0.016763186 0.025003508 0.039675422 -0.024687719 -0.008399997
-0.009440424 0.020092616 0.023690866 0.011550756 -0.004731375 -0.04110672 0.0166599 0.00370167
-0.00015096468 -0.007741678 0.018809373 -0.01969414 -0.012545127 0.013449058 0.040953822 0.011087995
-0.005223269 -0.013281496 0.04190223 -0.012215005 0.024140062 -0.019686922 -0.0044142036 0.032170027
-0.019269396 -0.010372939 0.021038199 -0.017088305 -0.033161577 0.027230445 0.01175901 -0.029097581
-0.039570916 -0.012369985 -0.012522569 0.014900265 -0.0040492225 0.02832804 0.0105846785 0.03707157
0.018438509 -0.008777119 0.023829361 -0.01021751 0.02043592 0.025606686 0.0038756297 -0.008705217
-0.0021298376 -0.0072263675 0.0165194 0.008673496 0.026067534 -0.0305072 0.008333462 -0.021545239
0.010495827 0.02318022 -0.020244222 0.018578133 -0.002766316 -0.012907398 -0.02204722 0.031171557
0.030905336 -0.028040677 0.038031943 0.015216224 0.017652081 -0.006794741 -0.014754857 0.04378418
-0.0049392483 0.012567937 0.042582378 0.045045793 0.0033519163 -0.0065857656 -0.009435399 0.03375015
0.027114838 0.042428914 0.033735573 -0.021072939 0.024353828 -0.0040589706 -0.020494202 0.011605651
-0.022008253 -0.011312395 -0.017773544 -0.025250444 -0.011982423 -0.0059301956 0.019540139 0.030286169
-0.0045009777 0.0075205443 0.044955254 -0.014724805 -0.016440509 0.027698675 -0.0064983866 -0.02404313
-0.012738728 0.036148116 -0.010882134 0.030586788 0.020664599 -0.0008667727 -0.02677803 0.027672332
-0.021118296 0.015452603 0.0059686876 -0.01516091 -0.022471279 -0.021319509 0.015011039 0.0074943695
-0.0078074327 0.011632671 0.028523428 0.01986969 -0.02069196 0.006913895 -0.023392264 0.0056410343
0.008389882 0.0073477835 0.034427233 -0.020351702 -0.014895391 -0.010781079 0.02736962 -0.017391061
-0.023347113 -0.026347969 0.032152392 0.015086324 0.010608703 -0.04129667 -0.018339513 0.034292184
0.0033141943 -0.033251375 0.023471124 -0.03115004 0.00020246353 -0.009476573 -0.0062330924 -0.03892306
0.026986556 0.032382786 0.017641038 0.013759598 -0.017304992 0.0026350042 -0.0004500533 0.038557135

fc1.bias f4 [28]
00000000: e281 bcbc 32c1 b8bc d476 913c 2410 4739
00000010: 5399 4d3c a55b a5bc df7a 59bc 03ef 313c
00000020: ac07 003d f755 353d f333 da3c 03e9 39bc
00000030: 0fe3 46bc 3dce b83b bd74 263d 2601 b0bc
00000040: b86a 043c 49ab aebb 0019 4abb 49ee 723b
00000050: 13bd 693d fc58 123d 74a2 993c 18c9 263d
00000060: 79a5 b9bc 7483 cabb 8a2f c63c fde0 293d
-0.023011152 -0.02255306 0.017756857 0.00018984132 0.012548762 -0.020185301 -0.013273924 0.0108602075
0.031257316 0.044271436 0.0266361 -0.011347058 -0.012139096 0.00563982 0.040638674 -0.021484923
0.008082084 -0.0053304774 -0.0030837655 0.0037068299 0.05706508 0.035729393 0.018754221 0.04071912
-0.022661911 -0.006180221 0.02419259 0.04147433

fc2.weight f4 [10, 28]
00000000: b2a5 213e 023b 4e3e 364c bbbe 0a5b 56be
00000010: aff0 a2be 0c5d 233e f000 8fbd 9e5c a03c
00000020: 3ab8 b93d b77e 9dbe d72e 0bbe 594d 63bd
00000030: 13d4 ff3c 4ee5 9fbe 002c 533e 8987 973c
00000040: cc41 873e cd4a 953e b2dc 643e 8b56 b7be
00000050: d392 9d3d 239b bebd 0fa9 1b3e f76b 1bbe
00000060: 4e84 59bc 8d93 5fbd 0476 01be 9164 f43d
00000070: f8ab 98bd a0ef 0e3d ce41 2fbd 4f9f 11be
00000080: c352 1b3e 375d 6a3e fb92 163e a6c2 eeb8
00000090: cfb5 36be 67a9 423e beef 0abe 5884 153e
000000a0: d08c 7abe c354 1f3e 596d 71be 02e8 293d
000000b0: 156c 90be 4ab6 d5bc 77e2 91bc f020 873e
000000c0: 14f1 87be bfbb 7e3e 969f 183e 2743 04be
000000d0: ce05 223d 4468 c8be 7b4a cc3d 35b4 e13d
000000e0: b726 d8bd b6bc 6bbe 4c45 d9bd 9fd5 e8bd
000000f0: 3745 08bd 1cfc 7abe fb4e 10be 766f d6bd
00000100: 343d 35bd 249d 193b c4dd 74be 6100 963e
00000110: 10cb 0ebe 4d8f 1f3e 3b8b 1d3e 1bdd c5bc
00000120: 075a 413e 50e2 933e 408c ddbe f335 87bd
00000130: d886 7f3e 8256 65be 0f63 933e f345 563e
00000140: 449e 173e 25ea 383e 2309 7fbd f9e2 ecbd
00000150: ab7a 2c3e 9114 ed3b 5342 0dbe 1e42 31be
00000160: e76b cbbe 80fb 13be 07d9 cd3c db0a 213e
00000170: f1bc bebe c571 203e afe8 393e ecd2 2bbe
00000180: 8f29 7dbd b60d 1b3e b7ca 63bd 2e9b 32be
00000190: cba2 02be c7b7 4a3e 849a e7bd dcb8 4f3d
000001a0: a859 6cbd d15d e43d fb35 d73d b3be 5a3e
000001b0: adb5 07be 6d8c 32be 1249 9abe 41a5 053e
000001c0: d5a4 c7bd fe47 07be 4499 103e c391 42be
000001d0: d855 a63d c635 c13c 156a aabd 3c83 383e
000001e0: b0df 723e 2639 90be 5fe1 34bc 3f38 74be
000001f0: d779 8c3e dc0c 6abd 0f23 3b3e 45d5 27bc
00000200: ec65 62be aca9 48be 5dc0 6cbc 0339 62bc
00000210: 8940 aabe b6cb 4abe 82ef 97be c56c 88bd
00000220: e486 463e 40f8 1fbd d910 483e 525e 1dbe
00000230: 786d 513d 1732 5a3e 9eb0 533e cd05 73be
00000240: 4831 063e 3941 973e 4cdd 633d 9a55 2a3e
00000250: 9e07 023e fd6f 8c3d 6fdb ac3b afa8 05be
00000260: dedd 8dbe ab25 69be bb38 0d3e e8c6 ddbd
00000270: 2518 bdbd 61f2 8cbe 8539 d53b 28e6 8ebe
00000280: a64e 233e 5178 6c3e ebab 9a3e 9910 043e
00000290: 7c41 a5be e8cd 06be 4cd9 8cbe d3b3 30be
000002a0: 10c0 1dbe 771b afbd dacd 3cbe b063 3b3e
000002b0: 1358 433b 6620 873e 313c 2f3e 8a51 6fbe
000002c0: 5e3d b43c 2d95 27be 5c72 4e3d e80b 9e3d
000002d0: c69d 68be 9fed 87be 9475 573e 7cd8 bdbd
000002e0: d65e 86bd 3a64 26bd af26 4d3e 7cee 263d
000002f0: d099 2fbe 17f3 fb3b 666b d439 38aa 7f3d
00000300: a593 f5bb 561f 883d 7f31 493e d7f9 85be
00000310: ad40 e5bb 4566 12be 3483 acbd d0c8 2dbd
00000320: bb4a a4bd b9d1 a6be 8037 343e ca92 0e3e
00000330: af45 fd3c d48c bdbd 0cf4 563e 1423 963e
00000340: 5a10 06bd 6ef7 353d 803d 9cbe e8bd abbd
00000350: 3883 6cbe db1d 513d 3faa 9dbc 8ecb 02be
00000360: 43b9 563e d2dd 80be 9c70 1dbe b023 a7be
00000370: b7c3 89bd 5ab2 4f3e 6431 ec3a b66f 863e
00000380: c104 70bc dafe 383e fd98 453e e757 163e
00000390: 863e e53d 7115 033d f5ee b2bd f6bb 41bd
000003a0: bf7d 123e 7fb1 ffbc f0e9 813d 65fd 96be
000003b0: d2d5 c7bd 17ae 903d 1a7b 383e 8b67 583b
000003c0: dce7 bebd dcde a2bd 2374 a9be e4f4 0fbe
000003d0: 08d0 9bbd 2800 dbbe 5642 abbe 906f 633e
000003e0: 3780 e7bd 4265 c0be 04ce 90be 7422 4c3d
000003f0: 211b 263e c76d 673e 090e 4c3e 8e6d adbe
0.15785864 0.20139697 -0.36581582 -0.20933166 -0.31824252 0.15953463 -0.06982601 0.019575413
0.090683416 -0.30760738 -0.13592087 -0.055493686 0.031229055 -0.31229633 0.20622253 0.018497245
0.26417387 0.2915863 0.22349814 -0.35808215 0.0769402 -0.09306934 0.1520121 -0.15177904
-0.013276173 -0.054584075 -0.12642676 0.11933244 -0.074546754 0.034896493 -0.042787366 -0.14220928
0.1516829 0.22887121 0.14704506 -0.000113849805 -0.17842792 0.19009934 -0.13568017 0.14601266
-0.24467778 0.15559678 -0.23576869 0.041481026 -0.2820746 -0.026087899 -0.017808182 0.26392317
-0.26551116 0.24876307 0.14904627 -0.12916242 0.039556317 -0.39142048 0.099751435 0.110207
-0.10554259 -0.23021206 -0.106089205 -0.1136887 -0.033269133 -0.24510235 -0.14092629 -0.10470478
-0.04424782 0.002343961 -0.23912722 0.29297164 -0.1394465 0.15582009 0.15385143 -0.024153283
0.18881999 0.288836 -0.43271065 -0.06602087 0.24953783 -0.22396281 0.28786513 0.20925121
0.14806467 0.18058069 -0.062264573 -0.11566729 0.16843669 0.0072351177 -0.13794832 -0.17310378
-0.3973076 -0.14451408 0.0251279 0.15726797 -0.37253526 0.156684 0.18155168 -0.16779679
-0.06180721 0.15141949 -0.055613246 -0.17442009 -0.12757413 0.19796668 -0.113087684 0.050713405
-0.05770269 0.111507066 0.10508343 0.21361808 -0.13252898 -0.1743638 -0.30133873 0.1305132
-0.09748236 -0.13211057 0.14120966 -0.19000916 0.08121842 0.023585211 -0.08321015 0.18018812
0.23718143 -0.281686 -0.011040061 -0.23849581 0.27436706 -0.05714117 0.18275093 -0.0102437185
-0.22109193 -0.19595975 -0.01445016 -0.013807538 -0.3325236 -0.19804272 -0.29674917 -0.06661371
0.19387394 -0.03905511 0.19537677 -0.15368012 0.05112979 0.2130817 0.20672843 -0.23732682
0.13104737 0.29541948 0.055630967 0.16634217 0.12698218 0.068572976 0.005275182 -0.13052629
-0.27708334 -0.22768275 0.13791172 -0.10828954 -0.09233121 -0.2752867 0.006507101 -0.2790997
0.15947971 0.23092772 0.30209288 0.12896957 -0.32276523 -0.13164485 -0.27509534 -0.17256097
-0.15405297 -0.085501604 -0.18437901 0.18299747 0.0029807135 0.26391906 0.17112805 -0.23370948
0.022001918 -0.163655 0.05040203 0.07717115 -0.22716436 -0.26548478 0.21040946 -0.09269807
-0.06561057 -0.040622927 0.20034288 0.04075478 -0.17148519 0.0076888907 0.0004051581 0.062418193
-0.0074944072 0.06646602 0.19647788 -0.26167175 -0.0069962353 -0.14296825 -0.084234625 -0.042427838
-0.08022066 -0.3258188 0.17599297 0.13923183 0.030917017 -0.092553765 0.20991534 0.29323637
-0.032730438 0.04442542 -0.3051567 -0.08385831 -0.23096931 0.051053863 -0.019246219 -0.12772962
0.20969109 -0.25169235 -0.15374988 -0.32644415 -0.06726783 0.2028288 0.0018020091 0.26257104
-0.014649571 0.18065968 0.19296642 0.1468197 0.11193566 0.03200287 -0.08736984 -0.047298394
0.14305781 -0.031212566 0.06343448 -0.294902 -0.0975758 0.07064455 0.1801571 0.00330207
-0.093215674 -0.07952663 -0.33096418 -0.14058262 -0.07608038 -0.42773557 -0.33449048 0.22210526
-0.11303752 -0.37577254 -0.28282177 0.049837545 0.16221286 0.2260047 0.19927229 -0.33872646

fc2.bias f4 [10]
00000000: d63b 9b3d 582e 3dbc f029 4e3d d9ee 27be
00000010: 0224 043e ff18 d33d 4943 fc3d 2e47 afbd
00000020: c1c9 44bd 903a 4bbc
0.07579772 -0.011546694 0.050332963 -0.16399707 0.12904361 0.10307502 0.12317521 -0.08558498
-0.04804397 -0.012404099
