mnist_net/model/mnist_net.pkl (torch, 90703 bytes, 4 tensors)

fc1.weight f4 [28, 784]
000000 02 f0 a9 3c 46 a3 14 bc 53 ca a6 bc 36 22 de 3c
       0.020744327 -0.009072131 -0.020360148 0.027115922
000010 66 3b ce 3c f2 df bb 3c e6 96 f7 3c 30 c2 7b 3b
       0.025174808 0.022933934 0.030223321 0.0038415305
000020 32 f0 e1 3c 24 f4 88 3c d0 6a 6e 3c 90 9a 10 bd
       0.027580354 0.016717978 0.014551833 -0.035303652
000030 12 01 36 bd 80 6b 25 bd 76 47 fc bc e5 38 7e 3c
       -0.044434614 -0.040385723 -0.030795794 0.015516494
000040 da 3c f7 3c 5c 72 9a 3c bc 49 98 bc 25 26 d5 bc
       0.030180383 0.018853359 -0.018589847 -0.026019165
000050 4a 36 56 bc 2e c3 e8 bc 20 da 14 bb 33 33 f8 bc
       -0.013074467 -0.028413381 -0.002271302 -0.030297851
000060 96 6f f0 3c fc c3 ad 3c f3 21 03 bd 5c 22 ae 3c
       0.029350083 0.021211617 -0.0320148 0.021256618
000070 d4 fc 72 3c 1c 1b 37 3c 84 23 46 3c bc fd ae bc
       0.014830787 0.011175897 0.0120934285 -0.021361224
000080 eb 5a 60 bc 81 01 ad bc a3 99 bb bc 44 78 10 bd
       -0.0136935515 -0.021118881 -0.022900408 -0.035270944
000090 d4 f6 05 bd fb a1 c1 bc 39 a3 bc bd 58 41 98 bd
       -0.032706097 -0.023636809 -0.0921082 -0.07434338
0000a0 7c b6 7a bd 95 19 a1 bd 7d 4c 87 bc 8e 60 97 bc
       -0.061209187 -0.078662075 -0.016515965 -0.018478658
0000b0 d5 2f f5 bc 78 a6 32 bd 90 63 a8 bd 5a 32 97 bd
       -0.029930035 -0.04361579 -0.08222115 -0.07382651
0000c0 1d 50 ce bd e3 bb 36 bd 30 35 4f bd c3 ff d6 bc
       -0.10073874 -0.044612776 -0.050587833 -0.026245004
0000d0 a8 25 0a 3c 45 ae 05 3d b2 69 ea 3c 50 90 9c bc
       0.0084318295 0.0326369 0.028614853 -0.019111782
0000e0 c8 c4 9e bb e8 1c 83 3b 83 3e f5 bb 7f a6 67 bd
       -0.0048452355 0.0040012486 -0.0074842586 -0.056555267
0000f0 48 ea 13 bd 91 1f a7 bb c1 be 44 bd c6 77 e1 bd
       -0.0361121 -0.0051001986 -0.04803348 -0.11009173
000100 51 5d de bd a6 3c 62 bd 22 3f d1 bd 03 cf fe bd
       -0.108576424 -0.05523362 -0.1021712 -0.12441828
000110 19 0a 0f be 30 a5 ee bd 22 f3 34 bd c9 c6 3c bc
       -0.13968696 -0.11652601 -0.044177182 -0.011522003
000120 b9 64 c6 bd 81 ed e4 bd 20 d7 70 bd 22 c6 d1 bd
       -0.0968718 -0.11178113 -0.05879891 -0.10242869
000130 79 30 ab bd 1b 5d fd bd 5b 7b e3 bd 38 fa 40 bd
       -0.08358855 -0.12371274 -0.111075126 -0.047113627
000140 7b 74 be 3c c0 34 f5 3c 46 ac f9 3c 03 1a fb bc
       0.023248902 0.02993238 0.030477654 -0.030652052
000150 6a 23 c2 3c 5b c4 03 3d 23 c6 0d 3b 9e 91 69 bd
       0.023698527 0.03216968 0.0021632991 -0.057023637
000160 c3 59 0a bd fd 7a d4 bc 3f 93 02 bd ca 32 b1 bd
       -0.03377701 -0.025937552 -0.031878706 -0.08652265
000170 b6 97 d8 bd 13 9b ea bd 70 f0 10 be 2e 77 1c be
       -0.105758116 -0.11455359 -0.1415422 -0.15279838
000180 f5 69 02 be ac 4d fe bd 7d 7f 06 be 81 f4 f9 bd
       -0.12735732 -0.124171585 -0.1313457 -0.122048385
000190 d5 c0 85 bd 5e 5d c3 bd 6c 86 00 be e8 0a d0 bd
       -0.065309204 -0.09539293 -0.12551278 -0.1015833
0001a0 93 92 8f bd a4 3f 9b bd 96 05 75 bd c9 96 9c bd
       -0.07010379 -0.07580498 -0.05981978 -0.076459475
0001b0 ff ed 63 bd 54 3b f9 bc 55 54 8f 3c 40 66 c5 bb
       -0.055646893 -0.030423798 0.017496267 -0.006024152
0001c0 c4 73 3c 3c 25 41 f8 bc 81 36 a3 bc a4 aa 38 bd
       0.01150221 -0.0303045 -0.01992345 -0.04508461
0001d0 c0 9e 2d bc 37 37 c8 3a 1d 45 19 bd 27 cd 88 bd
       -0.010596931 0.0015275244 -0.037419427 -0.06679755
0001e0 4e 6b 80 bd 71 b7 8a bd 84 1e a3 bc 86 a0 74 bd
       -0.06270467 -0.0677327 -0.019912012 -0.0597234
0001f0 51 07 7b bc 2e 91 cb bc 71 e7 56 3c 55 0b c5 3c
       -0.015321569 -0.0248495 0.013116703 0.024053255
000200 ba 72 13 3d 19 ef 28 bc 54 df 9e 3c 87 7c 13 3d
       0.035998084 -0.010310912 0.0193936 0.03600743
000210 63 b1 41 3d fe 9b 67 3d 33 e7 83 3d 3b 75 9b 3d
       0.04728831 0.05654525 0.06440582 0.07590719
000220 72 6e 10 3d 8f 5d 41 3d 34 b1 97 3c 3a da 64 bc
       0.03526158 0.047208365 0.018517114 -0.013968045
000230 f0 9d d6 bb 14 34 14 3c 1d 3c bc 3c 2c 1f 31 bd
       -0.0065495893 0.0090456195 0.022977883 -0.04324262
000240 94 6d 87 bc c6 48 5e bc 90 98 b8 bc 13 aa 97 39
       -0.016531743 -0.013567155 -0.022533685 0.0002892768
000250 32 4c 57 bd af 31 37 bd e6 51 d0 bb 8a c4 ed 3c
       -0.0525629 -0.044725116 -0.0063574193 0.029024381
000260 16 de 46 3d d4 33 78 3c 52 0d 89 3d 12 eb 5f 3d
       0.04855164 0.015149076 0.06691994 0.05466754
000270 8e d6 9d 3d 99 fb 91 3d 5f 59 fe 3d 17 0a 66 3d
       0.07706939 0.071280666 0.1241939 0.056161966
000280 0b 9f f0 3d 50 ee 01 3e ea d8 39 3e 96 c3 24 3e
       0.11749085 0.12688565 0.18149152 0.16090235
000290 c9 bd 0e 3e 1c 01 ae 3d 4d 5a c6 bb 4d 9a 3d 3c
       0.13939585 0.08496305 -0.006053245 0.011572433
0002a0 b0 b3 b9 3c 10 c2 39 bd 52 f4 10 bd af 75 87 bd
       0.02266869 -0.045351088 -0.035389252 -0.06614243
0002b0 3b 57 34 bc 75 09 71 bd 3e 66 e5 bc e3 58 5a bd
       -0.0110071255 -0.05884691 -0.028002854 -0.053307425
0002c0 ad f1 44 bd 2c 72 f6 bc fc 3e 96 bc e7 d1 15 3c
       -0.048082042 -0.030083738 -0.01834058 0.009144283
0002d0 8f fd ac bc 5b a9 af 3c a1 b8 b7 bc 09 d6 5b bd
       -0.021117 0.02144306 -0.022426905 -0.053670917
0002e0 64 0f 6e bd c0 9e 72 3c 9b e2 b1 3b 64 e6 8b 3d
       -0.058120146 0.014808357 0.005428625 0.06831053
0002f0 c7 c6 9f 3d 37 72 aa 3d 3d c9 0a 3e 52 5b 42 3e
       0.07801586 0.08322566 0.13553329 0.18980148
000300 e3 f0 83 3e 10 09 06 3e 97 ad e9 3d 37 07 ff 3c
       0.2576972 0.13089395 0.11410063 0.03113137
000310 3c 66 a6 bc 80 86 45 bd d5 0d 14 bd 20 f6 cb bd
       -0.020312421 -0.048223972 -0.036146004 -0.09959054
000320 39 30 be bd 06 25 80 bd 91 8c 47 bd 7a a2 9b bd
       -0.092865415 -0.06257062 -0.04871804 -0.07599349
000330 c6 2d d4 bb d4 59 07 bd 95 b0 86 bd ee 94 9e bc
       -0.006475183 -0.03304465 -0.06576649 -0.019358125
000340 67 c8 5a bd 19 dd 80 bd ad 3d 2a bd 59 7e d0 bd
       -0.053413775 -0.06292171 -0.041562725 -0.10180349
000350 48 c0 8d bd 8a 39 13 bd 85 e5 8a 3c c4 40 aa 3d
       -0.0692144 -0.035943545 0.016955147 0.08313134
000360 49 d3 d8 3c 8b 90 87 3d ab 8e 0c 3e a8 bf 04 3e
       0.026467936 0.06619366 0.13726299 0.12963736
000370 00 65 5e 3e 15 73 5e 3e 37 ac 9d 3d bd 00 a8 3c
       0.21718216 0.21723588 0.07698863 0.020508165
000380 38 d6 5b 3d 66 34 5e bd 88 78 45 bd 26 d7 4a bd
       0.05367109 -0.05424919 -0.04821065 -0.049521588
000390 23 b9 b0 bd dd 3e 2f bd a6 3c 4f bd 19 1b 17 bd
       -0.08629062 -0.04278456 -0.05059495 -0.036891077
0003a0 bc 4b 5c bd 14 01 28 bd 39 c3 7c bb b5 f1 1f 3c
       -0.053783163 -0.041016653 -0.003856851 0.009762217
0003b0 ca 16 00 bd cb de 47 3b 5a 86 91 bd 33 6a ae bd
       -0.031271733 0.0030497785 -0.07105704 -0.0851635
0003c0 f4 a8 59 bd d9 a8 30 3c 91 a7 2e 3d 64 41 fb 3c
       -0.053139642 0.010782444 0.042640273 0.03067083
0003d0 4b a6 56 3d 13 35 38 3d a4 54 b7 3d 12 99 1f 3e
       0.052404683 0.04497249 0.08951691 0.15585735
0003e0 b1 31 45 3e 47 21 7a 3e f1 86 14 3e 46 53 95 3c
       0.19257237 0.24426757 0.14504601 0.018228184
0003f0 86 6e ce bc a2 dc 08 bd 7a 33 59 bd 82 e1 f9 bd
       -0.025199186 -0.033413537 -0.053027608 -0.12201215

fc1.bias f4 [28]
000000 ec a9 39 3e 3e 3a 21 3e 1e 41 f5 3d 97 0d 6b bd
       0.18131226 0.15744874 0.11975311 -0.057386007
000010 17 bc 32 3e 67 ea a4 bd 4c cd 1d 3e e0 4b 91 3d
       0.17454563 -0.08052521 0.15410346 0.0709455
000020 55 cd 8c bb ae f9 28 3e a0 82 f8 3c 36 02 5a 3e
       -0.0042969384 0.16501495 0.030335724 0.21289906
000030 2b 5d 25 bd ba 6e f1 bc 18 61 bc 3d b0 30 cf 3d
       -0.040372055 -0.029471744 0.09198207 0.10116708
000040 83 98 12 bd 74 27 51 bd 97 40 ae bc 5c a5 72 bd
       -0.035789978 -0.051063016 -0.021271033 -0.05923973
000050 07 1d fa 3d 60 22 03 bd ee 7e 5c 3e 8a 3f 0b be
       0.12212568 -0.032015204 0.21532795 -0.13598457
000060 be bc c0 bd 42 fe 6c bd c5 b5 de ba d5 c8 17 bd
       -0.09411 -0.057859667 -0.0016991427 -0.037056763

fc2.weight f4 [10, 28]
000000 cb ec 6f bd 43 27 30 be 5b 04 90 be 54 5d 92 be
       -0.058575433 -0.17202477 -0.28128323 -0.2858683
000010 48 f6 62 be e3 7c 66 3e dd 75 c6 bd bf e7 44 bd
       -0.22164261 0.22508578 -0.096904494 -0.048072573
000020 8e 22 c1 be f9 17 81 3e 58 67 c4 be 22 53 b9 be
       -0.37721676 0.25213602 -0.38360095 -0.36196238
000030 7a 1a 19 3e a3 07 d7 3e b6 c9 bf be 60 aa 86 3d
       0.14951506 0.41998014 -0.3745858 0.06575465
000040 c9 c9 e5 bd 68 0f 74 3e 79 51 32 3e 65 57 6a 3e
       -0.11220128 0.23834002 0.17413892 0.22884901
000050 73 32 e4 3d 07 74 2a be 58 81 95 3e 5a 32 a7 bd
       0.11142435 -0.16645823 0.29200244 -0.08163901
000060 41 be 3f 3e b5 1e 8f 3c ed 9d 52 bd 62 ad a3 bd
       0.1872492 0.017470697 -0.05142014 -0.079920545
000070 d4 4f 9b 3e f0 7a 31 3e bd a6 8d be 2c d7 2f 3e
       0.30334342 0.17332053 -0.27666274 0.17171925
000080 31 ce 9f be 0e c5 99 bd 63 2f 51 be 43 ac 97 3e
       -0.31212 -0.07508288 -0.20428233 0.29623613
000090 04 36 81 be b9 d4 07 bd 1a 95 72 bb 8e 96 83 3e
       -0.25236523 -0.033161853 -0.003701514 0.25700802
0000a0 58 ab a7 be 0c 86 a9 bd fc 22 a0 3d eb 57 83 3e
       -0.32747912 -0.082775205 0.07819173 0.25653014
0000b0 55 29 c5 3e df 2d e2 be 9f de be be 84 cb 2e be
       0.38508096 -0.44175622 -0.3727922 -0.17069823
0000c0 25 b4 0e 3e 6c 37 4d bd a5 d6 66 3e 81 b3 4f 3e
       0.13935907 -0.050101683 0.22542818 0.20283319
0000d0 45 8b 76 be a2 12 b5 be 1e 4c af be 6b 0a 6a be
       -0.24076565 -0.35365778 -0.3423776 -0.22855537
0000e0 e5 49 4b 3d fa 30 25 3d f3 91 4b 3d b7 41 f8 3c
       0.04963102 0.04032991 0.049699735 0.030304773
0000f0 d0 e0 85 be 88 d6 6e 3d 25 dd 22 be 5c 63 dd bb
       -0.2614808 0.05831006 -0.15904672 -0.0067562293
000100 04 9c 0b 3e 32 e9 e7 3b 80 cd 5f 3e fb 12 fa 3b
       0.13633734 0.0070773596 0.21855736 0.007631657
000110 a3 5e 56 be 81 34 39 3e 5f 33 f6 bd eb 1a 97 3e
       -0.20934539 0.18086435 -0.12021517 0.29512724
000120 59 43 a1 be ca 34 2f 3e 53 5c 54 3e 6c a2 7f be
       -0.31496695 0.17109981 0.20738344 -0.24964303
000130 7e 06 98 be 17 e2 2c bc 56 54 81 bc e3 3d 89 3e
       -0.29692453 -0.010551951 -0.015787285 0.26805028
000140 12 2e 7e 3e 4a 52 6f be 12 f7 b6 3e bd a3 94 be
       0.24822262 -0.23371235 0.35735375 -0.29031172
000150 92 98 18 be b7 9a a7 3d b8 6d 69 3e 13 6f a4 3c
       -0.14901951 0.081838064 0.2279576 0.020072496
000160 aa 7f ba be df 51 4a 3e ee 68 fc 3d 72 83 30 be
       -0.36425525 0.19757794 0.12324701 -0.17237642
000170 4f dd 41 3e 21 ad 25 3e 28 be 3f be bd fe 8b 3d
       0.18932079 0.16179325 -0.18724883 0.06835697
000180 07 c5 49 3e 9b 34 09 bc 2e e0 14 3e 7d 0a ea bd
       0.19704066 -0.0083743585 0.14538643 -0.11427782
000190 b0 53 93 3e 25 c5 2a be 27 86 ad 3b 9d 66 84 3e
       0.28774786 -0.16676767 0.005295533 0.25859538
0001a0 b7 e1 e4 bc f6 4a 64 bd 53 98 82 be 3c f4 04 3e
       -0.02793966 -0.05573555 -0.2550684 0.12983793
0001b0 b1 8a ab be 68 df 6c 3e b7 20 9c 3e c5 b8 61 be
       -0.3350425 0.23132098 0.3049371 -0.2204314
0001c0 64 cf 8d 3e d2 31 ca be cc 03 39 be 53 e9 ba be
       0.2769729 -0.39491135 -0.18067855 -0.36506137
0001d0 72 b6 a7 3e 62 c7 dc be dc dc 8e 3e 5a 86 fa bd
       0.32756382 -0.43120867 0.27902877 -0.12232657
0001e0 bd 92 22 3d 15 2a 92 be 9d 5d 0b bd e1 6f 8a be
       0.03969072 -0.2854773 -0.034024823 -0.27038482
0001f0 40 17 f7 bd 6c 7a 47 3e cf 48 8c 3e b3 48 9c be
       -0.120649815 0.19480294 0.273993 -0.30524215
000200 47 21 cf bc 61 d5 8e be 5f dd 86 3e e7 fa c0 bc
       -0.025284423 -0.2789717 0.26340768 -0.02355714
000210 16 52 e4 bd e4 9f 20 be de f6 ea be 12 25 cb be
       -0.11148469 -0.15685993 -0.4589147 -0.3967672
000220 bf b8 8b 3c 95 b0 c5 be 9c e1 11 bf 53 0a 89 3d
       0.017055867 -0.38611284 -0.5698488 0.06691422
000230 06 8d 8c 3e 12 9e ad 3e 7d 15 8c 3d f6 77 f0 be
       0.27451342 0.3390966 0.06840036 -0.46966523
000240 ff 7c 85 bd a7 00 62 3d 34 6d a2 3e 6d 8c 1b 3e
       -0.06517982 0.055176403 0.3172394 0.15190287
000250 76 02 ea bd 61 37 4b 3e f0 e2 a0 be 82 53 a7 3e
       -0.11426251 0.19845344 -0.3142314 0.326809
000260 05 64 97 3e 68 a2 c7 be 31 e8 83 be b5 8f 87 be
       0.29568496 -0.38991094 -0.25763085 -0.26476827
000270 0d 75 33 be a2 75 d1 3d 6e db 22 bd 34 d2 68 bd
       -0.1752512 0.10227515 -0.039760046 -0.05684109
000280 09 13 9d bd f7 cf 27 3e b9 41 57 3e 6a 18 9b be
       -0.07669646 0.16387926 0.21021165 -0.30292064
000290 01 08 36 be d5 2e 5d 3e c8 8a f1 bb ee 61 84 be
       -0.17776491 0.21599896 -0.0073712803 -0.25855964
0002a0 5b 49 81 bd a5 01 88 3e 21 a6 fd 3d 80 fb a7 be
       -0.063128196 0.26563755 0.12385202 -0.32809067
0002b0 2e 33 2f 3b a0 a6 0e 3c f5 31 a8 be 3f e5 3a 3e
       0.0026733386 0.008706719 -0.32850614 0.18251513
0002c0 2c 11 d2 be 51 a0 37 3e b6 75 a1 3e f6 2d 11 be
       -0.41028726 0.1793225 0.3153512 -0.14177689
0002d0 68 ca 19 be a0 f2 bd be ec 4a 47 3e 17 52 12 3e
       -0.15018618 -0.3709917 0.19462174 0.14289127
0002e0 5d 30 4c bb 16 06 95 3e 12 10 fe 3d d5 e6 68 3e
       -0.0031156756 0.29106206 0.12405409 0.22744305
0002f0 2c 51 bd be 60 38 cf bd e3 1c 52 be 65 45 89 be
       -0.36975992 -0.101181746 -0.20518832 -0.26810756
000300 6a 4a 0c be 04 be b2 be bf f9 cd be bf 94 2a 3c
       -0.13700262 -0.34910595 -0.40229604 0.01041144
000310 f9 ff 92 be 04 f8 10 be 2f 9f a3 3e 4f 60 a7 3d
       -0.28710917 -0.1415711 0.31957385 0.08172666
000320 74 5f 24 3e c3 ba 76 be bb df 37 be 88 db a8 be
       0.16052037 -0.24094681 -0.1795644 -0.3297999
000330 ce fb 6d 3e d8 92 82 3e e7 45 92 be 24 35 ce 3d
       0.23240587 0.25502658 -0.28568956 0.100687295
000340 00 e2 df be 46 30 c5 bc ce 0d f8 bc 0d 45 8e bd
       -0.43727112 -0.02407087 -0.03028002 -0.06946764
000350 2c 04 23 be 14 26 c7 be 52 b6 b1 be b8 bc 1f bd
       -0.1591956 -0.3889624 -0.34709412 -0.038998336
000360 58 b6 10 3d 8e 8a 10 be 54 0a b1 3e 98 dc 93 3d
       0.035330147 -0.14115354 0.34578192 0.07219809
000370 22 52 12 3e a9 7f 5b 3e 28 1a 75 3e b0 38 33 3e
       0.14289144 0.21435417 0.23935759 0.17502093
000380 0e 49 16 3a 63 84 c2 be b2 e1 a3 be 6d 8a 16 3d
       0.0005732932 -0.37991628 -0.3200813 0.036753107
000390 31 b3 aa bd 83 bd 58 3e 49 da c4 bc 98 24 96 3e
       -0.08334959 0.21166043 -0.024029868 0.29324794
0003a0 a9 f8 b2 3d 4f bf 7e be 91 d0 50 be 41 e8 97 bd
       0.087388344 -0.24877666 -0.20392062 -0.07417346
0003b0 cd 87 a4 3d 0c da a8 be 3e 22 5c be df 3a 86 be
       0.080337144 -0.32978857 -0.21497437 -0.2621679
0003c0 24 5c 24 3e c7 6c 07 3e fe f6 2c 3d 44 de f6 bd
       0.16050774 0.13225089 0.042227738 -0.120541126
0003d0 39 3a ec be 2b f4 23 be 3c 6d b0 be 60 1b f4 3d
       -0.4613817 -0.16011111 -0.3445834 0.11919284
0003e0 f9 46 4d 3e 98 66 88 3e 34 ed 66 be 76 88 1a 3e
       0.20046605 0.26640773 -0.22551423 0.15091118
0003f0 2b 52 83 bd ae 6e 26 be 2d 17 fa 3c de 02 cc 3c
       -0.06412157 -0.16253158 0.03052863 0.024903711

fc2.bias f4 [10]
000000 af e1 2d bd 86 7f 8a 3e d3 7c 59 be 14 94 25 be
       -0.042451557 0.27050418 -0.21239023 -0.16169769
000010 29 8c ea 3d f4 b5 d4 bc 55 0d 41 3d 38 2e b7 3c
       0.11452515 -0.025965668 0.047131855 0.022360906
000020 d1 ec ea 3c b0 66 c2 bc
       0.028677376 -0.023730606
